abc/keypoint_classifier.tflite (tflite, 6488 bytes, 6 tensors)

sequential_1/dense_5/BiasAdd/ReadVariableOp/resource f4 [9]
-0.53669 0.05971861 -0.6263447 0.22558358 -0.51871324 0.05022053 0.64170706 0.085854255
0.6318321
00000000: 8464 09bf 809b 743d 2058 20bf 62ff 663e
00000010: 64ca 04bf 0bb4 4d3d ea46 243f 5bd4 af3d
00000020: c0bf 213f

sequential_1/dense_4/BiasAdd/ReadVariableOp/resource f4 [10]
0.9700077 0.049069747 0.28825718 0.07048048 -0.04314416 0.16650534 -0.3900537 0.44106063
0.41292697 1.2789074
00000000: 6d52 783f 5cfd 483d 7296 933e 1258 903d
00000010: eeb7 30bd 6080 2a3e 1eb5 c7be b3d2 e13e
00000020: 2a6b d33e 3db3 a33f

sequential_1/dense_3/BiasAdd/ReadVariableOp/resource f4 [20]
0.4004062 -0.6498135 -0.5815823 -0.54097867 -0.17568076 -0.75106853 -0.556554 -0.25753707
0.6377691 -0.6192315 -0.82494974 0.7251828 -0.21890594 -0.8556747 -0.78814495 -0.26143423
-0.8519348 -0.42086875 -0.25818443 -0.7660048
00000000: 0b02 cd3e 2d5a 26bf 94e2 14bf 947d 0abf
00000010: a8e5 33be 0746 40bf 537a 0ebf e6db 83be
00000020: d644 233f f585 1ebf e82f 53bf 94a5 393f
00000030: e128 60be 7f0d 5bbf dec3 49bf b5da 85be
00000040: 6618 5abf 1c7c d7be c030 84be e418 44bf

sequential_1/dense_3/MatMul f4 [20, 42]
-0.16279066 -0.16237865 0.16054222 0.5649062 0.25141373 0.32845226 0.3943476 0.23932943
0.5918705 0.2077044 -0.18266195 0.15825716 0.1905829 0.111162394 0.43356052 -0.16597688
0.39954168 -0.27621913 -0.35407928 0.17350556 1.3652877 -0.012912353 1.5627238 -0.4109228
0.79398674 -0.23485756 -0.3316077 0.09411579 0.8681683 -0.015419309 1.8476766 -0.3324281
1.5372117 -0.23632632 0.00097591 0.19274023 0.3908794 0.11467041 0.9642793 -0.119185016
0.6469566 -0.18603663 0.09213233 0.17400518 0.16810118 0.43230072 0.08475842 0.1872678
0.044552375 0.123029046 -0.51203096 0.078424 -0.03331596 0.13660562 -0.00054213556 0.08660073
-0.010901453 0.094996035 -0.009831461 0.06895628 -0.118981026 0.10674009 -0.036634073 0.07444095
-0.04606694 0.027947042 -0.06304111 -1.4675453 -0.08119943 0.050699692 -0.05898493 0.0570514
0.00042020078 0.0036596626 0.027713783 0.049884338 -0.038030773 0.064709954 -0.038179487 0.049456026
0.047678787 0.013497447 0.05831118 0.027201008 -0.1382 -0.29210156 0.47023442 -0.06749383
0.32768717 -0.11534142 0.5753877 -0.060967367 0.635176 0.02074708 -0.44139794 -0.0046487367
-0.22018011 0.013262115 -0.3980613 0.12696578 -0.47071174 0.07364556 -0.5443673 -0.008682633
-0.013586003 -0.08313979 -0.46482664 -0.15289964 -0.67197007 0.045391653 -0.3108589 -0.061442528
0.15823509 -0.24940301 0.19024622 -0.079737686 0.07293018 0.034819383 -0.30480117 -0.11797929
0.097154364 -0.35456833 0.14230064 -0.07081711 -0.103725895 0.023427967 0.17800027 0.16488844
-0.15211487 0.64731055 -0.051561084 0.2689803 -0.3453553 0.20854586 -0.4341694 0.15054968
0.18172169 0.100419424 0.24837086 0.08028121 0.24436338 0.102511026 0.19042467 0.042813845
0.2957759 0.1054716 -0.014768883 0.07000026 0.06502401 0.022475246 0.092441246 0.094208635
0.3138609 0.04515141 -0.20376761 0.05750082 -0.17513408 -0.0045866948 -0.44261304 -1.9251571
-0.035313908 0.0971626 -0.12917279 0.084663175 -0.10278207 0.041561276 -0.12064772 0.068053424
-0.14037603 -0.30334544 -0.44980243 -0.24564841 -0.26257133 -0.30395037 -0.38861126 0.023668166
-0.1602474 -0.089611486 0.2056302 -0.11841321 0.10663548 -0.026110524 0.04402538 -0.073286444
-0.0635367 0.035003953 0.46093088 -0.22471963 0.51457924 -0.05021072 0.25148207 -0.106956296
0.18656671 -0.21824269 1.8201886 -0.16817603 0.7795777 -0.13307218 0.3174849 -0.13272728
0.35466447 -0.19950664 1.6635841 -0.029878426 1.1079255 0.0027590026 0.8532504 0.2409921
0.3569528 0.32906413 0.20694727 0.27639383 -0.317845 -0.5730773 -0.41051155 -0.19680303
-0.6428601 -0.35794955 -0.72126985 -0.36434054 0.08978387 -0.028457638 -0.10899833 0.04079434
-0.21747538 0.4278371 -0.12060276 0.22381292 0.24453476 -0.018969389 -0.047737967 -0.012143874
-0.10494525 0.07042817 0.10394099 -0.072562695 1.249512 -0.13398546 0.19287129 -0.07194593
0.2172067 0.014856838 0.37382966 -0.14227855 1.2745422 -0.17933722 0.47960684 -0.11764121
0.46744177 0.12189516 0.64813924 0.1384646 0.30836236 -0.13894969 0.07763994 -0.09390347
00000000: 98b2 26be 9746 26be 2e65 243e b19d 103f
00000010: 4db9 803e e52a a83e eee7 c93e c612 753e
00000020: d384 173f 76b0 543e bc0b 3bbe 2a0e 223e
00000030: 2a28 433e 1ca9 e33d a5fb dd3e d8f5 29be
00000040: ba90 cc3e 986c 8dbe e149 b5be 71ab 313e
00000050: bfc1 ae3f 558e 53bc 5507 c83f 7964 d2be
00000060: b742 4b3f 807e 70be 7cc8 a9be c8bf c03d
00000070: 4740 5e3f 45a1 7cbc ab80 ec3f 0434 aabe
00000080: 5ac3 c43f 87ff 71be 36d4 7f3a b25d 453e
00000090: 5821 c83e 52d8 ea3d 02db 763f 4617 f4bd
000000a0: f39e 253f 6380 3ebe e0af bc3d 6a2e 323e
000000b0: b722 2c3e 8556 dd3e d395 ad3d 21c3 3f3e
000000c0: 8d7c 363d a7f6 fb3d 7614 03bf c39c a03d
000000d0: 5176 08bd 58e2 0b3e 1a1e 0eba b95b b13d
000000e0: 029c 32bc 488d c23d 2314 21bc f338 8d3d
000000f0: 53ac f3bd 8c9a da3d 9c0d 16bd 7f74 983d
00000100: b0b0 3cbd 32f1 e43c b31b 81bd 86d8 bbbf
00000110: e34b a6bd 7baa 4f3d 2f9a 71bd bbae 693d
00000120: 654e dc39 f3d6 6f3b 0408 e33c 8553 4c3d
00000130: 28c6 1bbd a786 843d 1862 1cbd 6792 4a3d
00000140: d54a 433d 6524 5d3c b4d7 6e3d a6d4 de3c
00000150: 4d84 0dbe 568e 95be 91c2 f03e 353a 8abd
00000160: 9dc6 a73e 1f38 ecbd 9c4c 133f ebb8 79bd
00000170: e59a 223f c8f5 a93c e9fe e1be 6e54 98bb
00000180: e576 61be 5849 593c b1ce cbbe 5103 023e
00000190: 2101 f1be 7cd3 963d a85b 0bbf 9a41 0ebc
000001a0: d497 5ebc 3245 aabd c2fd edbe b991 1cbe
000001b0: 3b06 2cbf 99ec 393d e628 9fbe 29ab 7bbd
000001c0: 6108 223e 8163 7fbe e8cf 423e 834d a3bd
000001d0: 6b5c 953d c59e 0e3d e60e 9cbe 209f f1bd
000001e0: def8 c63d fb89 b5be 42b7 113e 9008 91bd
000001f0: 3e6e d4bd 02ec bf3c b445 363e 84d8 283e
00000200: 00c4 1bbe 25b6 253f b731 53bd c9b7 893e
00000210: 69d2 b0be 0c8d 553e 744b debe b229 1a3e
00000220: 4015 3a3e b3a8 cd3d ee54 7e3e 7a6a a43d
00000230: 653a 7a3e 4df1 d13d affe 423e 925d 2f3d
00000240: f06f 973e 7f01 d83d 2ff9 71bc 4c5c 8f3d
00000250: 4f2b 853d 021e b83c d651 bd3d 75f0 c03d
00000260: 60b2 a03e aff0 383d 75a8 50be fb85 6b3d
00000270: 5956 33be fc4b 96bb 2d9e e2be 8c6b f6bf
00000280: 51a5 10bd 2ffd c63d df45 04be e363 ad3d
00000290: 687f d2bd 283c 2a3d 2716 f7bd 985f 8b3d
000002a0: bcbe 0fbe 1850 9bbe 814c e6be 428b 7bbe
000002b0: c06f 86be 629f 9bbe 0ef8 c6be bee3 c13c
000002c0: e517 24be 3a86 b7bd b990 523e a082 f2bd
000002d0: b463 da3d bde5 d5bc f553 343d 3417 96bd
000002e0: 881f 82bd 4e60 0f3d 22ff eb3e e71c 66be
000002f0: 77bb 033f c2a9 4dbd 42c2 803e e70b dbbd
00000300: 580b 3f3e 037b 5fbe f1fb e83f 5636 2cbe
00000310: 6792 473f 1344 08be 618d a23e a9e9 07be
00000320: 9596 b53e 784b 4cbe 53f0 d43f 9ac3 f4bc
00000330: 81d0 8d3f 62d0 343b 9e6e 5a3f a2c6 763e
00000340: 84c2 b63e 187b a83e fce9 533e 7e83 8d3e
00000350: 94bc a2be 32b5 12bf 922e d2be bc86 49be
00000360: 7b92 24bf 2a45 b7be 24a5 38bf d88a babe
00000370: 9be0 b73d fe1f e9bc 843a dfbd f717 273d
00000380: deb1 5ebe 770d db3e 94fe f6bd 372f 653e
00000390: 5267 7a3e b165 9bbc e388 43bd 19f7 46bc
000003a0: 89ed d6bd a53c 903d 04df d43d c09b 94bd
000003b0: 02f0 9f3f 7c33 09be 0d80 453e 6358 93bd
000003c0: 6f6b 5e3e 186a 733c 9a66 bf3e 78b1 11be
000003d0: 3324 a33f 2da4 37be 078f f53e e0ed f0bd
000003e0: 8754 ef3e 2ba4 f93d 74ec 253f aac9 0d3e
000003f0: ace1 9d3e d448 0ebe b001 9f3d 7650 c0bd

sequential_1/dense_4/MatMul f4 [10, 20]
-1.1170615 0.50882286 0.5191504 0.77354366 -0.73950183 -0.9897422 0.18644123 -0.6831254
-1.4993747 -0.15735763 0.12906899 0.63674843 0.46783704 0.06003349 0.7886154 0.453518
0.8639646 0.33140752 -0.88757664 0.7308236 0.35974497 -1.3998275 -0.39871877 -0.7122449
0.062058855 0.30861673 0.9941118 0.094975814 0.52971137 0.44779167 -1.674839 -0.6998096
-0.7038742 -1.9455998 0.9749464 -0.4634103 0.20828785 1.2277824 0.10556316 -1.6044698
0.12016483 -0.17025357 -0.09759553 0.45482162 0.55962247 0.47806397 2.044162 0.4447105
0.06417648 -0.7352435 -0.27185443 -0.36876974 1.4369471 -0.29651618 1.2591491 0.18213029
0.80100834 -1.2584021 0.34719262 -0.37733704 0.047754653 -0.6724211 -0.024153443 -0.7325962
0.048599448 0.48226428 -0.6930852 0.051522415 0.05227079 0.21806599 0.5318812 -0.26270363
-0.0074958676 -0.4726258 1.0632906 0.0033422816 -0.0114447195 -1.7897238 0.047265757 -0.82870877
0.31705123 -0.13659038 0.19346596 0.7694792 0.5646193 0.34684238 -0.016782075 0.29824442
0.25750875 0.5507961 0.1479056 -0.31391567 0.03397943 1.0113399 0.17075063 0.01561962
0.037249215 0.38710216 0.121866286 0.11985235 0.17331864 2.6266673 -0.26158938 1.1599745
0.030630348 0.4002212 -0.101633914 0.07774789 0.35688686 -0.06223938 1.1050036 0.030511003
0.11140312 2.224014 -0.3591157 0.040447615 -0.016447214 -0.6541917 0.13088557 2.4546046
-0.072887935 -0.009160354 0.68245745 -0.33255792 -0.0021629778 0.09518269 0.5425789 -0.049964547
-0.06274499 1.2483274 1.4599402 -0.1499782 0.19797102 0.45101428 0.589925 0.23420736
0.43971223 -0.72019845 -0.024813382 -0.0064152796 -0.17977491 -0.3308956 0.88826823 -1.3582121
-0.037790112 0.35373056 -0.409593 0.35198155 -0.30561283 0.07410115 -0.78496456 1.4039978
0.68755704 -1.4514991 0.01654865 0.7978949 0.54160213 -1.0885296 0.44937316 -0.07615525
0.96778667 0.20949855 0.41936392 0.29716465 0.06628507 0.06692455 0.3327247 0.16315952
0.89462334 -0.17275397 1.4756278 -0.054413334 0.25382113 0.96715456 0.50853974 -0.9998785
-0.6506843 -0.38302 0.2406904 0.6905415 0.7749004 0.4678423 -0.20021121 0.51859033
0.7979847 0.6101597 -0.5251995 0.9580022 0.7810286 0.3340935 0.350202 -0.5023196
-0.30071518 -0.082193434 -0.14194599 -0.28946456 0.015149365 2.1278667 0.8116348 0.18771711
00000000: dffb 8ebf 3742 023f 0ae7 043f f506 463f
00000010: fe4f 3dbf bf5f 7dbf 73ea 3e3e 4ee1 2ebf
00000020: 83eb bfbf 5c22 21be a92a 043e f201 233f
00000030: 5688 ef3e ade5 753d b3e2 493f 8333 e83e
00000040: c92c 5d3f 3fae a93e 3938 63bf 4117 3b3f
00000050: 7e30 b83e 8c2d b3bf de24 ccbe af55 36bf
00000060: 6d31 7e3d 0303 9e3e 1c7e 7e3f ae82 c23d
00000070: 2a9b 073f f344 e53e 2061 d6bf b926 33bf
00000080: 1931 34bf 6a09 f9bf 1696 793f 1d44 edbe
00000090: 6949 553e f927 9d3f 7f31 d83d 445f cdbf
000000a0: fa18 f63d f456 2ebe 2ae0 c7bd 61de e83e
000000b0: 6b43 0f3f cdc4 f43e 8dd3 0240 18b1 e33e
000000c0: f56e 833d eb38 3cbf 8130 8bbe 63cf bcbe
000000d0: e2ed b73f f8d0 97be cc2b a13f 5d80 3a3e
000000e0: e20e 4d3f 5213 a1bf 3bc3 b13e 5232 c1be
000000f0: 629a 433d ca23 2cbf 71dd c5bc 6d8b 3bbf
00000100: 3710 473d 58eb f63e 086e 31bf 2b09 533d
00000110: e519 563d b14c 5f3e 5e29 083f 1781 86be
00000120: e59f f5bb 02fc f1be e819 883f 2e0a 5b3b
00000130: a282 3bbc ab15 e5bf bd99 413d 4226 54bf
00000140: 8a54 a23e 59de 0bbe f11b 463e 97fc 443f
00000150: e48a 103f 5395 b13e 907a 89bc 7eb3 983e
00000160: 30d8 833e f900 0d3f 9174 173e 8eb9 a0be
00000170: 042e 0b3d 9673 813f 41d9 2e3e 6fe9 7f3c
00000180: a292 183d 4132 c63e 0895 f93d 2675 f53d
00000190: 717a 313e 511b 2840 0bef 85be 0b7a 943f
000001a0: 7fec fa3c cbe9 cc3e 7125 d0bd 493a 9f3d
000001b0: e0b9 b63e b8ee 7ebd c270 8d3f 36f2 f93c
000001c0: 5227 e43d 3f56 0e40 03de b7be 66ac 253d
000001d0: 4fbc 86bc 1b79 27bf de06 063e 3e18 1d40
000001e0: 4546 95bd 4f15 16bc 88b5 2e3f 0845 aabe
000001f0: bfc0 0dbb 24ef c23d 73e6 0a3f a0a7 4cbd
00000200: 7280 80bd 31c9 9f3f 52df ba3f e393 19be
00000210: eab8 4a3e 58eb e63e 5305 173f 0ed4 6f3e
00000220: f621 e13e ed5e 38bf 6f45 cbbc 4437 d2bb
00000230: ea16 38be 266b a9be 8c65 633f e5d9 adbf
00000240: cec9 1abd 2c1c b53e 2cb6 d1be ed36 b43e
00000250: 4979 9cbe 58c2 973d 70f3 48bf 33b6 b33f
00000260: bd03 303f b9ca b9bf 0991 873c d742 4c3f
00000270: 70a6 0a3f f054 8bbf 3d14 e63e 49f7 9bbd
00000280: dec0 773f ca86 563e deb6 d63e f725 983e
00000290: 77c0 873d bd0f 893d e45a aa3e 4a13 273e
000002a0: 0906 653f 6be6 30be 5fe1 bc3f 84e0 5ebd
000002b0: d8f4 813e 7197 773f a92f 023f 0af8 7fbf
000002c0: 3f93 26bf 331b c4be 8b77 763e 54c7 303f
000002d0: df5f 463f 0789 ef3e 2b04 4dbe 56c2 043f
000002e0: ba48 4c3f 6d33 1c3f 7973 06bf a23f 753f
000002f0: 7ef1 473f 4e0e ab3e ad4d b33e 0498 00bf
00000300: 57f7 99be 0855 a8bd 4a5a 11be b334 94be
00000310: 0b35 783c f82e 0840 4cc7 4f3f ea38 403e

sequential_1/dense_5/MatMul f4 [9, 10]
-1.4434617 0.5234411 0.9028753 0.9463066 0.1433358 -0.94522417 -0.13929416 0.74197865
-1.379511 -0.01544237 -1.0577168 -0.94548625 -1.0594692 -1.0017508 0.37384963 0.50702506
-0.4727502 -0.6227485 0.24369238 1.0222616 0.8056413 -0.20310833 -0.06467814 0.6851453
0.45316276 0.6664279 0.99999017 -0.7176047 -0.045244284 -1.4048197 0.67856956 1.0547717
0.054952472 0.2600249 -0.22958924 -1.2222217 -1.4065946 -0.64415014 0.111470975 0.6737076
-1.058235 0.7301863 -0.0406548 0.5233956 0.41608486 -1.1971666 0.79506946 0.16475621
0.3601966 0.35459566 -1.578168 -0.92273784 0.51427275 -0.20457396 -0.11852766 0.86556154
-0.42617798 -0.55039036 0.664303 0.17912391 0.20603566 -0.84491426 -0.13539016 -0.90770006
-0.4835096 -1.7305688 -0.8379191 0.9360511 -0.61635214 -0.072018564 0.9147635 -0.024404427
-0.7195712 -0.443669 -1.690127 0.33666083 0.117621705 0.40454313 -0.02235471 -0.56294924
-0.08741165 -1.1910784 -1.0067225 0.72510475 -0.89704245 -0.5644109 0.41560495 0.0038309342
0.39486668 0.5962547
00000000: 5ac3 b8bf 3c00 063f d622 673f 2641 723f
00000010: 9fc6 123e 36fa 71bf 21a3 0ebe 50f2 3d3f
00000020: d193 b0bf ff01 7dbc 4463 87bf 630b 72bf
00000030: b09c 87bf 5f39 80bf 3869 bf3e 65cc 013f
00000040: 500c f2be 726c 1fbf 7f8a 793e 78d9 823f
00000050: 823e 4e3f a1fb 4fbe f975 84bd af65 2f3f
00000060: f304 e83e 059b 2a3f 5bff 7f3f f1b4 37bf
00000070: 1252 39bd 22d1 b3bf bcb6 2d3f c202 873f
00000080: d815 613d fc21 853e 7119 6bbe c371 9cbf
00000090: 4b0b b4bf 06e7 24bf e54a e43d 1a78 2c3f
000000a0: 3f74 87bf 7ded 3a3f a685 26bd 41fd 053f
000000b0: 1309 d53e c13c 99bf ac89 4b3f dab5 283e
000000c0: b06b b83e 908d b53e 6901 cabf 8c38 6cbf
000000d0: 61a7 033f d67b 51be a1be f2bd 7195 5d3f
000000e0: 0034 dabe 62e6 0cbf c30f 2a3f 426c 373e
000000f0: 03fb 523e 4d4c 58bf b8a3 0abe 085f 68bf
00000100: 928e f7be 4783 ddbf de81 56bf 0ba1 6f3f
00000110: 41c9 1dbf 787e 93bd f12d 6a3f cbeb c7bc
00000120: d135 38bf 9528 e3be 1556 d8bf cf5e ac3e
00000130: a6e3 f03d 4720 cf3e 3a21 b7bc 711d 10bf
00000140: e104 b3bd 4275 98bf 48dc 80bf 77a0 393f
00000150: 93a4 65bf 3c7d 10bf 2cca d43e 6910 7b3b
00000160: f72b ca3e 26a4 183f
