urdu/keypoint_classifier.tflite (tflite, 6808 bytes, 6 tensors)

sequential/dense/BiasAdd/ReadVariableOp f4 [20]
0	0xbe9bace4	-0.30405343
1	0xbf78c8e5	-0.9718154
2	0xbe8810af	-0.2657523
3	0xbef0896d	-0.46979848
4	0x3e389b31	0.18027951
5	0x3ea63bfa	0.32467633
6	0xbf199f15	-0.60008365
7	0x3e25ba39	0.1618432
8	0x3dbee009	0.09320075
9	0x3d615f05	0.05502226
10	0x3ea1e0e0	0.31616879
11	0xbf6a82bc	-0.91605735
12	0x3d9f8869	0.0778969
13	0xbf305b87	-0.6888966
14	0x3db0bcd2	0.086297646
15	0xbeae0203	-0.3398591
16	0x3eb8c74d	0.36089554
17	0xbc823050	-0.015892178
18	0x3f0c4c25	0.5480369
19	0x3e6f3092	0.23358372

sequential/dense_2/BiasAdd/ReadVariableOp f4 [10]
0	0x3d7d878b	0.061896842
1	0x3e8e64bd	0.27811232
2	0xbf607505	-0.8767856
3	0xbf0f3233	-0.5593597
4	0x3f642c7a	0.89130366
5	0xbee77c40	-0.45211983
6	0xbe13a440	-0.14418125
7	0x3ea7068c	0.32622182
8	0x3e280994	0.16409904
9	0xbec949eb	-0.39314207

sequential/dense_1/BiasAdd/ReadVariableOp f4 [10]
0	0x3eed9036	0.46399087
1	0x3f36a0f1	0.7133933
2	0x3f3bdab6	0.733806
3	0x3f5d7278	0.8650279
4	0x3da4410c	0.08020219
5	0x3f59e565	0.85115653
6	0x3d6dc096	0.058044992
7	0x3f8d7bdb	1.1053423
8	0x3eb407bc	0.3516215
9	0x3fa91d4d	1.3212067

sequential/dense/MatMul f4 [20, 42]
0	0xbdf5d9da	-0.120044425
1	0xbe8ba1d4	-0.27271903
2	0xbf0e124d	-0.55496675
3	0xbe577b28	-0.21043074
4	0xbf0c5172	-0.54811776
5	0x3d0c8afe	0.03431224
6	0xbf0ac3df	-0.54205126
7	0x3d08ff7e	0.03344678
8	0xbf1f218c	-0.62160563
9	0xbd9c57fa	-0.07633968
10	0xbf3c050c	-0.734452
11	0xbe1963f6	-0.14979538
12	0xbeca7ed6	-0.39549893
13	0xbd68223a	-0.056673266
14	0xbe4ccbcd	-0.19999619
15	0x3dc3ec96	0.095666096
16	0xbdba45d8	-0.09095353
17	0x3e404b27	0.18778668
18	0xbeaccb4b	-0.3374885
19	0xbde54771	-0.11195267
20	0xbc2482c3	-0.010040942
21	0xbd0f14af	-0.034931835
22	0x3ea300f1	0.31836656
23	0x3df89f07	0.12139707
24	0x3ecea0b1	0.40356973
25	0x3e6230ba	0.220889
26	0x3fa9b272	1.3257582
27	0xbe230bf1	-0.15922524
28	0x3f9c4551	1.2208654
29	0xbd8016d0	-0.06254351
30	0x3ef3b725	0.47600666
31	0x3e852f1c	0.26012504
32	0x3e43c37b	0.19117539
33	0x3ea84d1f	0.3287134
34	0x3f8b4711	1.0881063
35	0xbe3e2557	-0.18568932
36	0x3f6b8dfe	0.9201354
37	0xbac1ac6e	-0.001477612
38	0x3f20d5f0	0.6282644
39	0x3e928834	0.2861954
40	0x3e46344e	0.1935589
41	0x3efdd159	0.49573782
42	0x3e6141b0	0.21997714
43	0x3e2d51f0	0.16925788
44	0xbefe7573	-0.49698982
45	0x3f8d31cd	1.1030823
46	0xbee4e7de	-0.4470815
47	0x3f292def	0.66085714
48	0xbf10d10d	-0.56568986
49	0x3ef02fbe	0.46911424
50	0xbf0cd237	-0.5500826
51	0x3e7198de	0.2359347
52	0xbda32856	-0.07966678
53	0x3ec91031	0.39270166
54	0xbbf77a62	-0.007552431
55	0x3e5be0e2	0.21472505
56	0xb92d71c1	-0.00016540942
57	0x3dafa4c1	0.08576346
58	0xbda956a3	-0.08268478
59	0xbd873a04	-0.066028625
60	0xbe2ff486	-0.17183122
61	0x3eb1d9f4	0.34736598
62	0xbbfb9f7e	-0.007678925
63	0x3df8a632	0.12141074
64	0x3cc158c1	0.023601891
65	0xbda63a4f	-0.0811659
66	0x3b7d8b35	0.003868771
67	0xbedaed88	-0.42759347
68	0xbe9c4849	-0.305239
69	0x3eb47a68	0.3524964
70	0xbd515a96	-0.05111178
71	0x3d8a0064	0.06738356
72	0xbe89e3b5	-0.2693154
73	0xbec10ab6	-0.37703484
74	0xbf8bcea5	-1.0922438
75	0xbfff3d26	-1.9940536
76	0xbd914fa4	-0.07095268
77	0x3e625d3e	0.22105882
78	0x3ca7729f	0.020440398
79	0xbd5f2f6b	-0.05448858
80	0x3d4e989b	0.050438505
81	0xbe0744ca	-0.13209835
82	0x3e0449fb	0.12918846
83	0xbe845f46	-0.25853938
84	0x3e1f4230	0.15552592
85	0x3da630ac	0.08114752
86	0xbf1d7863	-0.6151182
87	0x3db0e479	0.08637328
88	0xbf1921d8	-0.59817266
89	0x3d07609f	0.03305113
90	0xbf0f18e0	-0.5589733
91	0xbcbbeefb	-0.022941103
92	0xbf08b857	-0.5340628
93	0xbce24805	-0.027622232
94	0xbf31b813	-0.694215
95	0xbe30415d	-0.17212434
96	0xbef262d3	-0.47341022
97	0xbd54d502	-0.051960953
98	0xbe813b01	-0.2524033
99	0x3dd74cc3	0.10512688
100	0xbe0a407c	-0.13501161
101	0x3e99ff6c	0.30077684
102	0xbecaf162	-0.39637285
103	0xbe8f2e91	-0.27965215
104	0x3e22699f	0.15860604
105	0xbe0a058a	-0.13478675
106	0x3e75a447	0.23988448
107	0x3ddf4e3e	0.109035954
108	0x3e642851	0.22281004
109	0x3e91af67	0.28454134
110	0x3fbdc8a9	1.4826862
111	0xbe61836b	-0.22022788
112	0x3ffe218a	1.9853985
113	0xbd5e84e4	-0.054325953
114	0x3f3ca899	0.7369476
115	0x3e88fdb8	0.26756072
116	0x3ddbb83e	0.10728501
117	0x3ed1d0ea	0.409797
118	0x3faa54d9	1.3307143
119	0xbeb3d615	-0.3512427
120	0x3fc19aad	1.5125328
121	0xbd2a06a7	-0.04151025
122	0x3f6e3e0e	0.9306344
123	0x3eaa7523	0.33292493
124	0x3e46c926	0.1941267
125	0x3f274def	0.6535329
126	0x3c2c33a0	0.010510355
127	0xbe8ceccb	-0.2752441
128	0xbc1bab11	-0.009501235
129	0xbf0c0e18	-0.54709005
130	0xbe6acc03	-0.22929387
131	0xbdaeb582	-0.085307136
132	0xbef58ee0	-0.47960567
133	0xbc5ddfd8	-0.013542138
134	0xbf0c3c87	-0.5477986
135	0xbc96dbad	-0.018415296
136	0x3e6e4f46	0.23272428
137	0xbb8e4cdf	-0.00434266
138	0x3e41657f	0.18886374
139	0xbce4c434	-0.027925588
140	0x3e7166a2	0.23574308
141	0x3ddfb197	0.109225444
142	0x3e3c63a1	0.1839738
143	0x3e474f93	0.19463949
144	0xbdd24bcb	-0.102683626
145	0x3d4275ee	0.047475748
146	0xbe6fad10	-0.23405862
147	0xbda3732d	-0.079809524
148	0x3e029d8a	0.12755409
149	0xbdf6a063	-0.1204231
150	0x3e1db137	0.15399633
151	0xbe02f4c3	-0.12788682
152	0xbfd7e6e7	-1.6867341
153	0x3cf74a39	0.03018676
154	0xbfa74ea6	-1.3070877
155	0xbe3664b3	-0.17811851
156	0xbf83c9a8	-1.0295916
157	0xbe9f9234	-0.31166232
158	0xbe3a4bf0	-0.1819303
159	0xbed27ee3	-0.41112432
160	0xbf0a39cf	-0.5399446
161	0xbd38bed5	-0.045103867
162	0xbf4aa992	-0.79164994
163	0xbe87ad9d	-0.26499644
164	0xbfb023ad	-1.3760887
165	0xbeab16c2	-0.334158
166	0xbf9b2781	-1.2121431
167	0xbe018a9f	-0.12650536
168	0xbe13c851	-0.14431883
169	0x3c4ba500	0.012429476
170	0x3f909714	1.1296105
171	0xbeeb0e34	-0.45909274
172	0x3f7a7d4d	0.97847444
173	0xbec4e6ad	-0.38457242
174	0x3f21d19f	0.6321048
175	0xbf837801	-1.0270997
176	0x3ed45633	0.41472015
177	0xbfa30012	-1.2734396
178	0xbe52d925	-0.20590647
179	0x3ea5c0d7	0.32373688
180	0x3b9c3fbc	0.00476834
181	0x3e74e6ce	0.2391617
182	0x3d2547b5	0.04035159
183	0x3db5e226	0.08881025
184	0x3d09e1d3	0.03366263
185	0xbc5cd2c9	-0.0134779895
186	0xbf1bcd88	-0.6086049
187	0x3e8720ea	0.263923
188	0xbdee3622	-0.11631419
189	0x3e173156	0.14764914
190	0xbd9f61a3	-0.077822946
191	0xbe40fe57	-0.18847023
192	0xbc8cbb9c	-0.017179303
193	0xbe8f4c90	-0.279881
194	0xbf6575dd	-0.8963297
195	0x3e86941b	0.2628487
196	0xbe2f90c8	-0.17145073
197	0x3ea99eb7	0.33128902
198	0x3e82fb0f	0.25582168
199	0x3f55c434	0.8350251
200	0x3ec36b18	0.38167644
201	0x3fc52ff5	1.540526
202	0xbf37b509	-0.7176061
203	0x3e341a86	0.17588243
204	0xbea0d55f	-0.3141279
205	0x3ff02476	1.8761127
206	0xbe9260ba	-0.28589422
207	0x401389e6	2.3052917
208	0xbdbb2d6f	-0.09139525
209	0x4023b4ba	2.5579057
210	0x3d4112f8	0.04713723
211	0x3e84723e	0.2586841
212	0x3ee48c7b	0.44638428
213	0xbd09197b	-0.033471566
214	0x3eb19b8e	0.3468899
215	0xbdd1a7ee	-0.10237108
216	0x3e562b02	0.20914844
217	0xbf18df95	-0.5971616
218	0x3def71e2	0.11691643
219	0xbf37264b	-0.71542805
220	0xbe91ed2e	-0.28501266
221	0x3ddc9c8c	0.107720464
222	0xbd1d0a9a	-0.03834019
223	0x3d11e1c6	0.035615705
224	0xbbd3133a	-0.006441501
225	0x3d0350d0	0.03205949
226	0x3c3f9f14	0.011695642
227	0x3c0487fc	0.008089062
228	0xbefa14c2	-0.48843962
229	0xbe260559	-0.16212977
230	0xbd90ce45	-0.07070593
231	0x3e82ad65	0.25522915
232	0x3bc04aeb	0.005868306
233	0x3e78710f	0.24261878
234	0xba05145f	-0.0005076583
235	0x3e8b821d	0.27247706
236	0xbe973202	-0.2953034
237	0xbee117a2	-0.43963343
238	0xbda28ebf	-0.07937383
239	0x3f285339	0.6575199
240	0x3df792d9	0.12088556
241	0x3f4dac82	0.8034135
242	0x3e4d1e95	0.20031197
243	0x3f878400	1.0587158
244	0xbe69b833	-0.22824173
245	0xbf1888f3	-0.5958397
246	0xbe625305	-0.22101982
247	0x3fef0d18	1.8675871
248	0xbd176acd	-0.036967088
249	0x401fa222	2.4942708
250	0xbdc680da	-0.09692545
251	0x4011afb7	2.2763498
252	0x3e93d988	0.288769
253	0xbddae63e	-0.106884465
254	0xbdfe425c	-0.12415001
255	0xbd2d7dc0	-0.042356253

sequential/dense_1/MatMul f4 [10, 20]
0	0x3e568e7f	0.20952795
1	0x3f80dcd1	1.0067388
2	0x3e9e5df1	0.30931047
3	0xbe281165	-0.16412885
4	0xbe972649	-0.29521397
5	0xbec0c081	-0.3764687
6	0x3c5f36e0	0.013623923
7	0x3e8922dc	0.26784408
8	0x3e6e9133	0.23297577
9	0x3e274adf	0.16337155
10	0xbf232979	-0.6373516
11	0xbf095729	-0.5364862
12	0x3fa1bce7	1.2635773
13	0x3d8188f5	0.063249506
14	0x3f8664ce	1.0499513
15	0x3d8a9e9f	0.06768536
16	0x3f875780	1.0573578
17	0x3f9723be	1.1807783
18	0x3d1f06ec	0.03882496
19	0x3fd1ef5b	1.640117
20	0x3f233265	0.6374877
21	0xbe64547d	-0.22297855
22	0x3f0795de	0.52963054
23	0x3e195c9e	0.14976737
24	0x3f1ef46b	0.620917
25	0x3fa2f4d9	1.2730972
26	0x3e2d5b3e	0.16929337
27	0xbe68de0e	-0.22740957
28	0x3ef93026	0.48669547
29	0xbec9b5a8	-0.39396405
30	0x3fb45743	1.408913
31	0xbe73d162	-0.23810342
32	0xbfa622df	-1.2979392
33	0x3e0c85b6	0.13722882
34	0xbf6a7434	-0.9158356
35	0x3d8c062b	0.06837114
36	0x3ed38373	0.41311225
37	0x3ddbce10	0.10732663
38	0x3f40761d	0.75180227
39	0xbedf478e	-0.4360928
40	0x3f93c490	1.1544361
41	0xbed7b4a1	-0.42129996
42	0x3f6c4a78	0.9230113
43	0x3e29334c	0.16523474
44	0xbd8c1b57	-0.06841152
45	0xbf1021dd	-0.5630167
46	0x3e40248c	0.18763942
47	0x3f9f4fc2	1.2446215
48	0x3f6489a7	0.8927254
49	0x3fd6d085	1.6782385
50	0xbef4fa5c	-0.4784726
51	0x3f7d4b0f	0.98942655
52	0x3e50aa77	0.20377527
53	0x3f9058c9	1.1277095
54	0xbdc296b2	-0.09501399
55	0x3f9e7e1e	1.2382238
56	0xbfb0fefc	-1.3827815
57	0xbec5fdf2	-0.38670307
58	0xbf23b00b	-0.63940495
59	0x3f0df6f2	0.55454934
60	0x3e833b43	0.2563115
61	0xbf52c441	-0.8233071
62	0x3e4414bf	0.19148539
63	0xbfa642ff	-1.2989196
64	0xbf489abd	-0.7836111
65	0xbf28f1ad	-0.6599377
66	0xbfb061a9	-1.3779804
67	0xbda768bc	-0.08174273
68	0x3de3ecbf	0.1112914
69	0x3eab7ae0	0.33492184
70	0x3d38f9bd	0.045160044
71	0x3f04bd3d	0.51851255
72	0x3f289f59	0.65868145
73	0x3b78ea5a	0.0037981481
74	0x3f0db8a2	0.5535985
75	0x3d5049b6	0.050851546
76	0xbe689977	-0.22714792
77	0x3ee35f72	0.44408756
78	0xbd8cd7ae	-0.06877075
79	0xbff9749e	-1.9488714
80	0x3e1e7b7b	0.15476792
81	0x3f192825	0.5982688
82	0x3e57e113	0.21081953
83	0x3e9e9451	0.3097253
84	0x3f898b0d	1.074556
85	0x3fd09db8	1.6298132
86	0x3ed5bce0	0.41745663
87	0xbe3d947f	-0.18513678
88	0x3e4057a1	0.18783428
89	0xbf711f57	-0.94188446
90	0x3feb8412	1.839968
91	0x3f9922d3	1.1963753
92	0x3f640e55	0.8908437
93	0x3e8c799b	0.27436528
94	0x3f4a004c	0.78906703
95	0x3e936ad7	0.2879245
96	0x3ddfdbff	0.10930633
97	0xbe2b0d5f	-0.1670432
98	0x3ebef0b0	0.37293005
99	0xbadd176a	-0.001686794
100	0xbf4f7cc8	-0.81049776
101	0x3f0010a0	0.5002537
102	0xbf7a9c47	-0.9789471
103	0x3f1f1b03	0.6215059
104	0x3f5add36	0.8549379
105	0x3d42577f	0.047446724
106	0x3f0e8a68	0.5567994
107	0xc006982b	-2.1030376
108	0xbd9c5531	-0.076334365
109	0xbfa52a02	-1.2903445
110	0xbd20b07d	-0.039230812
111	0x3f225168	0.63405466
112	0xbfcc59fb	-1.596496
113	0x3d10b394	0.03532751
114	0xbfcdfc7a	-1.6092675
115	0x3d5c1720	0.05373299
116	0xbd2ba7ac	-0.04190795
117	0xbfabc710	-1.3420124
118	0x3f33a4c4	0.7017329
119	0xc00c27c9	-2.1899283
120	0xbfc62ce4	-1.548245
121	0x3e09390c	0.13400668
122	0xbf7d4075	-0.9892648
123	0x3f11bce7	0.5692887
124	0x3e715531	0.23567654
125	0xbec29906	-0.38007373
126	0x3f2fc8a7	0.68665546
127	0x3f1d5fa5	0.61474067
128	0xbfb2aae0	-1.3958397
129	0x3f3d0cb8	0.7384753
130	0xbe293ed7	-0.16527878
131	0x3ea285cf	0.31742713
132	0x3f317092	0.69312394
133	0x3e8c7b0e	0.27437633
134	0x3ebca8f5	0.36847654
135	0x3e885954	0.26630652
136	0xbf11dff5	-0.56982356
137	0xbe4e5878	-0.20150936
138	0x3ec5d53d	0.3863925
139	0x3ccea114	0.025223292
140	0x3f16ffd3	0.58984107
141	0x3d1f73fd	0.038928974
142	0x3ea75ae4	0.32686532
143	0x3da0dcca	0.07854612
144	0x3f416934	0.7555115
145	0x3f3d52c5	0.7395442
146	0x3dd8ca24	0.1058543
147	0xbec13ebd	-0.37743178
148	0x3f2d916c	0.6780002
149	0xbebeb3ab	-0.3724645
150	0x3f965076	1.1743305
151	0xbe3515d2	-0.17684105
152	0xbf4bc965	-0.7960418
153	0xc0410834	-3.0161257
154	0xbf924331	-1.1426755
155	0xc051da2f	-3.2789419
156	0x3f750c23	0.95721644
157	0x3f0246d4	0.50889325
158	0x3f5efee8	0.87107706
159	0xbfbac0ca	-1.4590085
160	0x3f602844	0.8756144
161	0xbd61b4d9	-0.05510411
162	0x3f2cd1b9	0.6750751
163	0x3d55843c	0.05212806
164	0x3ef662e9	0.48122337
165	0x3f412ba6	0.7545723
166	0x3cc35937	0.023846252
167	0xbdcc9b36	-0.09990542
168	0x3ec5aced	0.38608494
169	0xbe8c5349	-0.27407292
170	0x3ee1de21	0.44114783
171	0x3d2a0a48	0.04151371
172	0x3fc7b99e	1.5603521
173	0x3e26e97f	0.16300009
174	0x3fc70590	1.5548573
175	0x3e48d0b8	0.1961087
176	0x3ee3bc81	0.44479755
177	0x3fe33316	1.7749965
178	0x3f32da1c	0.6986406
179	0x3f248d3f	0.64278024
180	0x3e157c19	0.14598121
181	0x3f47350d	0.77815324
182	0x3e0fd036	0.1404427
183	0x3f561bfc	0.8363645
184	0x3e2105a7	0.15724812
185	0xbe7586a0	-0.23977137
186	0x3f771855	0.965215
187	0x3f33c171	0.70217043
188	0x3e4261f0	0.18982673
189	0xbe3e7ff0	-0.18603492
190	0xbed5331b	-0.41640553
191	0x3f83490d	1.0256668
192	0xbe37cb92	-0.1794875
193	0xbc7d5824	-0.015462909
194	0xbd0151b9	-0.031572077
195	0x3d1337d7	0.035941925
196	0x3ed9fa59	0.42573813
197	0xbf9f733e	-1.2457044
198	0x3db954e0	0.09049392
199	0xbe031f69	-0.12804951

sequential/dense_2/MatMul f4 [10, 10]
0	0xbf8890a0	-1.0669136
1	0xbca3a755	-0.019977251
2	0x3f0697e9	0.52575547
3	0xbf64f505	-0.8943637
4	0x3d82ff5f	0.063963644
5	0xbf9b1833	-1.211676
6	0xbf7d8e4c	-0.9904525
7	0xbd1252c2	-0.035723455
8	0x3e420eaf	0.18950914
9	0x3f80810b	1.0039381
10	0x3e8814c8	0.26578355
11	0xbfd73dfa	-1.6815789
12	0xbbb77436	-0.00559857
13	0xbe16fc96	-0.14744791
14	0x3f4be64a	0.7964827
15	0xbfa11a49	-1.2586147
16	0x3e83d239	0.25746325
17	0xbf28faf5	-0.6600793
18	0x3ef43b33	0.47701415
19	0x3eb2a282	0.3488961
20	0x3eb53fc9	0.35400227
21	0x3f57da0d	0.84317094
22	0xbed62d77	-0.41831562
23	0xbf1765df	-0.5913982
24	0xbdb70518	-0.089365184
25	0xbfbec3b2	-1.4903471
26	0x3e9a01a1	0.30079368
27	0x3f7a6de2	0.9782392
28	0x3f300e22	0.68771565
29	0xbfa4880f	-1.2854022
30	0x3f54c604	0.8311465
31	0xbf506bb0	-0.8141432
32	0x3eb2e942	0.34943587
33	0x3fc4b040	1.5366287
34	0xbf1f34e1	-0.6219006
35	0xbf443e24	-0.7665732
36	0xbf0d0cff	-0.55097955
37	0xbe99aa49	-0.3001273
38	0x3f4015dd	0.7503336
39	0xbfa2df62	-1.2724421
40	0x3edfe61b	0.43730244
41	0xbe81fd49	-0.25388554
42	0x3f42e850	0.7613573
43	0xbe78c449	-0.24293627
44	0xbf916d15	-1.1361414
45	0xbff04ec0	-1.8774033
46	0xbf869d81	-1.0516816
47	0xbd540bfa	-0.051769234
48	0xbe32ed7d	-0.17473407
49	0xbe555690	-0.20833802
50	0x3f2ae170	0.6675024
51	0xbf8babaa	-1.0911763
52	0xbe58947b	-0.21150391
53	0x3fc438d2	1.532984
54	0x3f02722c	0.5095546
55	0x3f587128	0.8454766
56	0x3f143d75	0.57906276
57	0xbfa854bf	-1.3150862
58	0xbfd3b854	-1.6540627
59	0xbdc410f1	-0.09573544
60	0xbfcbdd20	-1.5926857
61	0xbf9be334	-1.2178712
62	0x3f13d92f	0.5775327
63	0x3c86b101	0.016441824
64	0xbee65389	-0.44985607
65	0xbe935f95	-0.2878386
66	0x3f5e5e4d	0.8686264
67	0x3de8d033	0.11367836
68	0xbfc696e5	-1.5514799
69	0x3ea434e2	0.32071596
70	0x3ea6da1d	0.32588282
71	0xbe2ff74a	-0.17184177
72	0xbfa41f31	-1.2822019
73	0xbd89edae	-0.06734787
74	0xbf169abb	-0.5882985
75	0x3ef89f91	0.4855924
76	0x3df8276e	0.121168956
77	0x3f0d672c	0.5523555
78	0xbe9863df	-0.29763696
79	0x3f028453	0.5098316
80	0xbf5b600b	-0.85693425
81	0x3ce2d6a6	0.027690243
82	0xbf8d31e5	-1.1030852
83	0xbf828572	-1.0196974
84	0x3f0e0419	0.55475
85	0x3d7eaf92	0.062179156
86	0xbea69cc0	-0.32541466
87	0x3f562454	0.8364918
88	0xbde0be07	-0.10973745
89	0x3ed4bab3	0.4154869
90	0xbf72ce00	-0.9484558
91	0x3f05d1c4	0.522732
92	0xbefe4a04	-0.49665844
93	0xbe2aad40	-0.16667652
94	0x3f43e96e	0.7652806
95	0x3eea24d0	0.4573121
96	0x3ec732c8	0.3890593
97	0xbe2c9f20	-0.16857576
98	0x3d2a0888	0.041512042
99	0xbef189c8	-0.4717543
