words/keypoint_classifier.tflite (tflite, 6808 bytes, 6 tensors)

sequential/dense/BiasAdd/ReadVariableOp f4 [20]
0.63169587 -0.39121243 -0.8149238 -0.36073828 0.41377074 0.05648162 -0.02859684 -0.37980285
0.6286387 0.0367484 -0.014048394 0.49550515 -0.6634443 -0.2131956 0.2292443 0.40253845
0.011449552 0.76689476 -0.39909622 0.41210464
00000000: d2b6 213f ff4c c8be d99e 50bf b0b2 b8be
00000010: c2d9 d33e 4559 673d ec43 eabc 8575 c2be
00000020: 77ee 203f 7e85 163d 3c2b 66bc dab2 fd3e
00000030: 7cd7 29bf f34f 5abe 05bf 6a3e 8519 ce3e
00000040: e796 3b3c 3753 443f 5756 ccbe 61ff d23e

sequential/dense_2/BiasAdd/ReadVariableOp f4 [10]
-1.0712782 0.58399844 0.49939716 1.1536576 0.20174035 -0.09216625 0.11312106 -1.1962713
-0.366231 -1.0035061
00000000: a51f 89bf ec80 153f fcb0 ff3e 0dab 933f
00000010: 0695 4e3e a9c1 bcbd 04ac e73d 6b1f 99bf
00000020: a182 bbbe e372 80bf

sequential/dense_1/BiasAdd/ReadVariableOp f4 [10]
0.997406 0.78210896 0.3879175 0.9379371 1.1641246 -0.080212526 0.26785168 -1.7749754
0.9282491 -0.42551005
00000000: 0056 7f3f 4b38 483f 1f9d c63e a51c 703f
00000010: 0902 953f 7746 a4bd db23 893e 6532 e3bf
00000020: bca1 6d3f 74dc d9be

sequential/dense/MatMul f4 [20, 42]
-0.2569413 0.2927388 0.7578738 -0.7655654 0.7481775 -0.2048304 0.83449525 -0.21518159
0.96174926 -0.12595883 0.20317608 -0.16587068 -0.7720186 0.0013368143 -0.31842956 0.13587567
-0.08761625 0.2568477 -0.12348306 -0.0773617 -0.39933777 0.060040984 -0.0036199682 0.18171713
0.21252225 0.26198068 0.1309336 0.26883554 -0.31283575 0.1149522 -0.1291595 0.3156892
0.2763443 0.36750856 -0.0669148 0.57742184 -0.31318736 0.56401575 -0.18888019 0.4576375
-0.27001944 0.4510513 -0.17374536 -0.11372481 -0.073439404 0.61416274 -0.12662318 0.38931423
-0.5079033 0.29214638 -0.9596475 0.25142178 -0.10843096 0.286141 -0.11497637 0.19096582
-0.9051101 0.25980562 -1.2658916 0.34229624 -1.1907767 0.20286283 -0.072733395 0.010257387
-0.23324859 -0.13132343 -0.36080217 -0.16458032 -0.7257583 0.20048968 0.13314554 -0.13073935
0.20272192 -0.25520983 0.034991268 -0.20776857 -0.120329335 0.10339016 0.32897717 -0.18499263
0.76294225 -0.37404978 0.8947719 -0.36346102 -0.21325237 0.28533638 0.31726623 0.468912
0.6255848 0.0987707 0.6534739 0.0010824248 0.63229513 -0.053428743 0.2127142 0.049721636
-0.3672077 0.039189573 -0.3694949 0.049019452 -0.38950065 0.012805767 -0.63693744 0.0048261858
0.4131971 -0.017678704 0.11129071 -0.09466798 -0.123524055 -0.16539061 -0.65015155 -0.11505399
0.03299821 -0.058519892 -0.1802949 -0.19592312 -0.52374274 -0.22828138 -0.6322863 -0.36273947
-0.095893726 -0.13148744 -0.34905413 -0.22183403 -0.6811401 -0.26544517 0.064727515 -0.2298791
-0.43281475 0.19369492 -0.023975497 -0.08903913 0.08729408 0.04397502 0.048152596 0.05274722
-1.5994408 0.1295303 -0.46771136 0.07676763 -0.1427244 0.041240927 -0.047735315 -0.14632563
-2.1761115 0.15172571 -0.18011926 -0.005704993 -0.023199674 0.026280606 -0.17857057 -0.00031250622
-1.643067 0.17094027 -0.4087554 -0.028577931 -0.22678536 0.018570991 -0.05337911 0.052390628
-1.0608759 0.17485602 -0.56121564 0.07523138 -0.48962077 0.05013178 -0.84851956 0.024317823
0.046307057 0.0294815 0.611745 0.36607793 0.47520593 0.057993222 0.07520988 0.19352156
0.17602591 0.4427113 0.48257482 0.5431408 0.44396758 0.4970953 0.27590215 0.28717858
0.11349245 0.2526421 -0.08910751 0.24050562 0.024907026 0.3741736 -0.021794554 0.32928506
-0.20756532 0.6476819 0.07880819 0.5424272 -0.08823397 0.48833907 -0.058925394 0.66409934
0.1735667 0.1852931 -0.34525773 0.07960472 -0.5490183 0.39155856 -0.3961296 0.18574637
-0.054880206 0.17164285 0.10409671 -0.011714846 -0.46156415 -0.56429553 -0.39623234 -0.27968967
-0.077027194 -0.17015363 0.20446421 -0.06882326 -0.2701065 -0.33250514 -0.1083688 -0.068008535
0.013257945 -0.08602244 0.06706065 -0.04037533 0.28568864 -0.23047684 -0.49031827 0.025115289
-0.95312446 0.20093516 -0.5293901 0.16571973 0.5827267 -0.04668067 -0.31576017 0.16146041
-0.64896256 0.30486485 -0.37803733 0.25160536 0.67605597 0.045132425 -0.28126362 0.36594206
-0.9147025 0.4284388 -1.061961 0.3351805 -0.21500489 -0.2389155 -0.40093273 -0.37699905
00000000: cf8d 83be dce1 953e 0404 423f 18fc 43bf
00000010: 9088 3f3f 0fbf 51be 7ba1 553f 9058 5cbe
00000020: 3335 763f 5afb 00be 640d 503e 01da 29be
00000030: 03a3 45bf 0b38 af3a 3309 a3be fe22 0b3e
00000040: 2670 b3bd 8b81 833e b0e4 fcbd d06f 9ebd
00000050: 0076 ccbe 89ed 753d fd3c 6dbb 0e14 3a3e
00000060: 6f9f 593e 5522 863e 7513 063e d0a4 893e
00000070: 022c a0be 0f6c eb3d 6342 04be 04a2 a13e
00000080: 007d 8d3e 152a bc3e a00a 89bd ebd1 133f
00000090: 185a a0be 5663 103f cf69 41be 764f ea3e
000000a0: fd3f 8abe 32f0 e63e 4eea 31be 8ee8 e8bd
000000b0: 6667 96bd c539 1d3f 82a9 01be 3254 c73e
000000c0: f305 02bf 3694 953e 75ab 75bf 5bba 803e
000000d0: 0d11 debd 1381 923e bb78 ebbd 8b8c 433e
000000e0: 4cb5 67bf 3e05 853e bc08 a2bf 7441 af3e
000000f0: 5f6b 98bf 46bb 4f3e 3ff5 94bd 990e 283c
00000100: b8d8 6ebe a679 06be 10bb b8be be87 28be
00000110: 4ccb 39bf 2b4d 4d3e 4e57 083e 89e0 05be
00000120: 5696 4f3e ddaa 82be 0153 0f3d 49c1 54be
00000130: 3a6f f6bd 38be d33d b26f a83e b56e 3dbe
00000140: 2f50 433f 7483 bfbe c50f 653f 9017 babe
00000150: d45e 5abe 9c17 923e b870 a23e 3c15 f03e
00000160: 5326 203f 4b48 ca3d 114a 273f 26e0 8d3a
00000170: 18de 213f 19d8 5abd c0d1 593e eaa8 4b3d
00000180: a602 bcbe 3f85 203d 6f2e bdbe 9fc8 483d
00000190: a16c c7be 48cf 513c 550e 23bf fb24 9e3b
000001a0: 928e d33e eed2 90bc 62ec e33d 49e1 c1bd
000001b0: 2efa fcbd 285c 29be 5570 26bf 6da1 ebbd
000001c0: 2229 073d 8eb2 6fbd 3a9f 38be 12a0 48be
000001d0: 0114 06bf 98c2 69be 84dd 21bf fdb8 b9be
000001e0: ee63 c4bd a5a4 06be 39b7 b2be 7628 63be
000001f0: 335f 2ebf 6ee8 87be dc8f 843d 6d65 6bbe
00000200: e599 ddbe f657 463e 4368 c4bc 265a b6bd
00000210: 3dc7 b23d 271f 343d a83b 453d 780d 583d
00000220: 7aba ccbf 97a3 043e dd77 efbe 5938 9d3d
00000230: 5826 12be 3fec 283d 1b86 43bd 63d6 15be
00000240: 6945 0bc0 fc5d 1b3e 2f71 38be f3f0 babb
00000250: 3e0d bebc 6d4a d73c 34db 36be e0d7 a3b9
00000260: 0550 d2bf f70a 2f3e 6348 d1be 441c eabc
00000270: 6c3a 68be 3122 983c 0ea4 5abd 8e97 563d
00000280: c8ca 87bf 750d 333e d4ab 0fbf e912 9a3d
00000290: 93af fabe fb56 4d3d 9438 59bf 2c36 c73c
000002a0: 78ac 3d3d 3083 f13c 529b 1c3f 916e bb3e
000002b0: 314e f33e 4d8a 6d3d a307 9a3d 842a 463e
000002c0: 2340 343e 0eab e23e 0c14 f73e 470b 0b3f
000002d0: b84f e33e 4683 fe3e 0c43 8d3e 1209 933e
000002e0: bb6e e83d 4e5a 813e 007e b6bd 1b47 763e
000002f0: d209 cc3c af93 bf3e 7e8a b2bc 0d98 a83e
00000300: 018c 54be 7bce 253f 3066 a13d 82dc 0a3f
00000310: 03b4 b4bd 9407 fa3e c15b 71bd 6a02 2a3f
00000320: 78bb 313e 79bd 3d3e 9fc5 b0be cd07 a33d
00000330: 778c 0cbf 5d7a c83e 80d1 cabe 4c34 3e3e
00000340: 11ca 60bd 25c3 2f3e a830 d53d a0ef 3fbc
00000350: 2352 ecbe ac75 10bf f7de cabe 7c33 8fbe
00000360: 6fc0 9dbd c13c 2ebe 115f 513e 36f3 8cbd
00000370: 664b 8abe 1d3e aabe 76f0 ddbd 0f48 8bbd
00000380: da37 593c 882c b0bd 1857 893d 9a60 25bd
00000390: c845 923e 1f02 6cbe ff0a fbbe 94be cd3c
000003a0: f7ff 73bf f2c1 4d3e 1c86 07bf 6fb2 293e
000003b0: 942d 153f 3b34 3fbd 51ab a1be e155 253e
000003c0: 6922 26bf 3f17 9c3e 1c8e c1be 6bd2 803e
000003d0: 0112 2d3f c7dc 383d c901 90be c25c bb3e
000003e0: f129 6abf 555c db3e 57ee 87bf c79c ab3e
000003f0: 3e2a 5cbe 44a6 74be 0e47 cdbe 0506 c1be

sequential/dense_1/MatMul f4 [10, 20]
0.062723264 0.7049219 0.5004165 0.34808037 -0.7729837 0.34899136 0.6335643 0.63177085
-0.23418868 -0.19556774 0.29717562 -0.5503332 0.26079538 0.27515823 0.39727244 -0.48314017
-0.15001321 0.07195529 0.6166548 -0.72123885 -1.6975889 0.23424853 -0.373417 -0.17157778
-0.38409448 0.00012714998 0.16689765 0.23282723 -1.3579743 0.206567 -0.024102967 -0.4253468
-0.08872394 0.72882646 -0.8791291 -0.38800478 0.5914136 -1.4801569 0.46046254 -0.4578667
0.38837248 0.5608932 -0.6031382 -1.547777 0.7872833 -1.7501175 0.6508276 -0.016196636
-0.4053789 0.08568607 -1.7386981 0.6286258 0.2743143 0.49583516 0.09872667 0.7939778
1.0323387 0.32195294 0.06588909 0.62218064 -1.129218 0.5773505 -0.106928855 -0.11454832
-0.54225165 0.26005095 0.61310685 0.39886224 0.030054722 0.31621143 0.23409747 -0.54185045
0.020464156 0.1360379 -1.2611973 -0.37612173 0.990566 -1.0048907 0.28229672 -0.42320383
-1.0421634 -0.11982424 -0.06318672 0.50212127 -0.5906079 0.73408294 -1.2908021 0.32257062
-0.872334 0.4089948 0.5900661 -0.5576981 -0.01768648 0.6834203 -1.289048 -0.4727559
-1.8554027 -1.1110022 0.2500034 -0.64584094 0.37279803 1.2539116 1.4362769 0.12698524
-0.006282949 0.18380752 -0.075062804 0.36086324 1.2113594 -1.050265 0.17129652 -0.23829801
1.4373258 0.6703604 -0.15552814 -0.34000954 -0.23111635 0.23688655 0.54700416 -0.29096067
1.0002428 -0.7211419 0.027766157 0.68422294 -0.905085 0.86366916 0.047454707 0.6944382
-0.06828567 0.123270385 0.7184278 -0.64992326 0.19291638 -0.23947951 1.1184322 -0.028616605
-0.0101559395 1.0039419 0.4437841 -0.0041166344 0.43964216 0.51130885 0.29261982 0.4149734
0.63074154 0.34187883 0.25872493 0.64495796 0.1575967 -0.12562256 0.3038376 0.4348478
-0.019663656 -0.087256104 0.5422254 0.78977275 0.71789 0.446553 0.17242195 0.5594721
1.0359924 -0.20948192 0.1281591 0.19194739 0.7671883 0.48774755 0.8813121 0.06530168
0.92004305 1.8086548 0.39173162 0.34467828 -0.24452986 0.0031679706 0.49738166 0.64020306
0.40540826 0.9313307 0.3850987 0.5548378 0.29768455 1.0791543 0.42117363 0.57891434
-0.41490653 0.38929573 0.35854205 -0.68793 -0.7458331 0.22160634 0.31468695 -0.30026552
0.10598648 -0.007965559 0.25914997 -0.2866867 -0.933998 0.2039526 0.16819686 -0.26054698
00000000: 0e75 803d c375 343f 4c1b 003f 9737 b23e
00000010: 42e2 45bf ffae b23e 4531 223f bcbb 213f
00000020: 28cf 6fbe e942 48be 6727 983e a3e2 0cbf
00000030: f986 853e 8ae1 8c3e 4b67 cb3e 265e f7be
00000040: 109d 19be 4c5d 933d 17dd 1d3f 1ca3 38bf
00000050: 984a d9bf d9de 6f3e 8330 bfbe 16b2 2fbe
00000060: 08a8 c4be 9053 0539 38e7 2a3e 436a 6e3e
00000070: 1ad2 adbf 4d86 533e 9673 c5bc 0ec7 d9be
00000080: e6b4 b5bd 5f94 3a3f 9b0e 61bf 90a8 c6be
00000090: e266 173f c875 bdbf bfc1 eb3e 816d eabe
000000a0: c2d8 c63e b296 0f3f 4467 1abf 8f1d c6bf
000000b0: 668b 493f da03 e0bf a39c 263f cfae 84bc
000000c0: d38d cfbe 2e7c af3d a98d debf 9fed 203f
000000d0: ed72 8c3e 1bde fd3e 3531 ca3d 2142 4b3f
000000e0: ad23 843f 04d7 a43e dcf0 863d 3b47 1f3f
000000f0: 378a 90bf 3ecd 133f 84fd dabd 4f98 eabd
00000100: 01d1 0abf 6625 853e 92f4 1c3f ac37 cc3e
00000110: 5235 f63c 77e6 a13e 3fb7 6f3e b6b6 0abf
00000120: 72a4 a73c 854d 0b3e ea6e a1bf 0793 c0be
00000130: bc95 7d3f 42a0 80bf 3289 903e 2cae d8be
00000140: 9c65 85bf 6966 f5bd 0a68 81bd 058b 003f
00000150: 1432 17bf dcec 3b3f 0139 a5bf fa27 a53e
00000160: 4851 5fbf c467 d13e 920e 173f 4dc5 0ebf
00000170: 3de3 90bc a2f4 2e3f 86ff a4bf 100d f2be
00000180: d67d edbf 5235 8ebf 7200 803e d555 25bf
00000190: 62df be3e 2d80 a03f ecd7 b73f 6b08 023e
000001a0: 32e1 cdbb 0a38 3c3e 87ba 99bd 11c3 b83e
000001b0: d30d 9b3f 156f 86bf 5b68 2f3e 6504 74be
000001c0: 4bfa b73f bd9c 2b3f c542 1fbe bb15 aebe
000001d0: c4a9 6cbe 6392 723e 7708 0c3f ccf8 94be
000001e0: f507 803f c19c 38bf da75 e33c 3c29 2f3f
000001f0: a7b3 67bf 6c19 5d3f de5f 423d b4c6 313f
00000200: 5bd9 8bbd 2f75 fc3d e2ea 373f 5f61 26bf
00000210: df8b 453e 1e3a 75be c928 8f3f 5f6d eabc
00000220: 1965 26bc 2b81 803f ab37 e33e d5e4 86bb
00000230: c718 e13e 23e5 023f 44d2 953e 6577 d43e
00000240: 4778 213f be0a af3e 9877 843e f71b 253f
00000250: 0861 213e 33a3 00be 9a90 9b3e 5fa4 de3e
00000260: ad15 a1bc 54b3 b2bd 49cf 0a3f 8c2e 4a3f
00000270: a4c7 373f 98a2 e43e 618f 303e 9039 0f3f
00000280: 669b 843f 6e82 56be 243c 033e db8d 443e
00000290: 7466 443f 0cba f93e ab9d 613f e3bc 853d
000002a0: f187 6b3f 0082 e73f 0c91 c83e ac79 b03e
000002b0: 0966 7abe ba9d 4f3b cfa8 fe3e 59e4 233f
000002c0: ac91 cf3e b06b 6e3f a82b c53e da09 0e3f
000002d0: 1c6a 983e ba21 8a3f 12a4 d73e bb33 143f
000002e0: a16e d4be c551 c73e d392 b73e 2e1c 30bf
000002f0: ebee 3ebf c6ec 623e a61e a13e 67bc 99be
00000300: 710f d93d fa81 02bc 4eaf 843e 99c8 92be
00000310: 7e1a 6fbf f3d8 503e cc3b 2c3e 6a66 85be

sequential/dense_2/MatMul f4 [10, 10]
0.38715586 0.13173756 -0.6503992 -0.3275281 0.65876657 0.51498276 -0.13371803 0.114229426
-0.97028536 0.6746211 -0.16534768 0.049273375 -0.58520365 -0.16087072 0.66627896 0.7759684
-0.50440025 0.20107743 -0.0916553 -0.14254616 0.49254605 0.3316861 0.1428597 0.40215778
-0.4206042 0.47659492 -0.6681352 -1.2826053 -0.26806912 -0.8220565 0.66209865 0.25459373
-1.4330295 -0.11984464 1.092483 -0.67852646 0.100200914 -1.8384235 -0.088524334 -1.4771936
0.43781072 -1.5132166 -0.4499812 -0.48247388 -0.3853818 -0.9139208 0.446988 -0.14257741
1.0144758 -0.7878551 -0.061329786 0.32896915 -0.78835565 0.7265712 0.07113556 -0.9853054
0.07446925 0.11074743 0.4197161 0.012217743 -0.31029862 0.9195181 0.52873653 -0.041602425
0.7044722 -1.6056466 -2.3482046 -0.39891145 0.37428746 0.7185421 -1.1078336 -0.5323836
0.2703464 -0.8649024 -0.46755546 -0.3147543 0.29780477 1.0961134 0.8179778 0.08892421
0.36855906 0.45341584 0.8316223 0.207948 -0.20403221 0.18860391 0.1473363 -0.28656495
-0.8203654 0.36969578 0.10368658 -0.77744967 -0.008178177 -0.9254903 -0.2819745 0.5020696
0.5608425 0.2817574 0.14127162 0.22251968
00000000: 4b39 c63e 36e6 063e 9080 26bf c3b1 a7be
00000010: eda4 283f e9d5 033f 61ed 08be 1ef1 e93d
00000020: 9f64 78bf f8b3 2c3f e750 29be e1d2 493d
00000030: e8cf 15bf 4bbb 24be 4291 2a3f dda5 463f
00000040: 6020 01bf 3ee7 4d3e c6b5 bbbd 9ff7 11be
00000050: ff2e fc3e c3d2 a93e d049 123e a0e7 cd3e
00000060: 6f59 d7be 4004 f43e e90a 2bbf 692c a4bf
00000070: 5b40 89be 4b72 52bf 4c7f 293f 1c5a 823e
00000080: 836d b7bf 1b71 f5bd 7cd6 8b3f e9b3 2dbf
00000090: 2336 cd3d 7651 ebbf 3f4c b5bd ae14 bdbf
000000a0: ba28 e03e 15b1 c1bf f063 e6be d106 f7be
000000b0: c350 c5be b7f6 69bf 9cdb e43e d0ff 11be
000000c0: 58da 813f dfb0 49bf f134 7bbd a56e a83e
000000d0: add1 49bf 9200 3a3f 85af 913d fa3c 7cbf
000000e0: 5683 983d 8ccf e23d 07e5 d63e ee2c 483c
000000f0: 76df 9ebe 8a65 6b3f 475b 073f 4e67 2abd
00000100: 4a58 343f d485 cdbf fc48 16c0 1f3e ccbe
00000110: 9ba2 bf3e 60f2 373f 7ecd 8dbf 4b4a 08bf
00000120: d86a 8a3e 3e6a 5dbf 6e63 efbe 7a27 a1be
00000130: de79 983e 724d 8c3f fe66 513f e51d b63d
00000140: c6b3 bc3e 1f26 e83e 33e5 543f 52f0 543e
00000150: d2ed 50be 6221 413e 54df 163e a4b8 92be
00000160: 7803 52bf c448 bd3e a159 d43d f106 47bf
00000170: c3fd 05bc efec 6cbf f65e 90be a287 003f
00000180: 6093 0f3f 8242 903e 82a9 103e 33dc 633e
