numbers/keypoint_classifier.tflite (tflite, 6496 bytes, 6 tensors)

sequential/dense_2/BiasAdd/ReadVariableOp/resource f4 [10]
000000 ab 7f 99 bf 79 b0 8e 3f 9f 05 ba 3e 72 14 b7 be
       -1.1992086 1.1147605 0.36332414 -0.35757786
000010 a1 35 d7 bd 5c 81 23 3f cf 1c ee bb 45 96 af bf
       -0.10508276 0.6386926 -0.007266618 -1.3717734
000020 3f a0 a9 bd 6b 87 a9 3e
       -0.08282518 0.33111128

sequential/dense_1/BiasAdd/ReadVariableOp/resource f4 [10]
000000 f0 b5 aa 3d fc d0 00 3f 70 fc 34 3e f5 07 7b 3f
       0.08335483 0.50318885 0.17674422 0.98059016
000010 ac 9d 65 3f df b8 7e 3f 0b a6 f8 3f 74 54 d1 3e
       0.89693713 0.9950084 1.9425672 0.40884745
000020 64 ef 5b 3e 28 7c bc 3f
       0.21478039 1.472539

sequential/dense/BiasAdd/ReadVariableOp/resource f4 [20]
000000 9e c3 9d bf f5 39 d0 be 25 2d 80 bf 20 1d 33 bf
       -1.2325323 -0.40669218 -1.0013777 -0.69966316
000010 d5 e6 04 be f1 b8 0a bf 95 b2 d6 3e b1 76 79 3f
       -0.1297868 -0.5418845 0.41933122 0.97446734
000020 5e 06 57 bf 1a 62 3b bf 7a 7e 70 bf 72 79 ee bf
       -0.8399409 -0.73196566 -0.9394299 -1.8630812
000030 91 c2 bb be 62 83 93 bf aa 7f ad bf 3f 59 18 be
       -0.3667188 -1.152447 -1.3554585 -0.14877795
000040 0e 6a 87 bf cc 27 a6 bd 0d df c3 be e4 4b f4 3d
       -1.057924 -0.081130594 -0.38256112 0.119285375

sequential/dense/MatMul f4 [20, 42]
000000 80 c1 ee bb c6 57 91 be 75 a9 24 bf 36 3b f0 be
       -0.0072862506 -0.28387278 -0.6432107 -0.46920174
000010 20 d1 d4 be 17 9c 2a be 0b ad 4f bf 69 e6 15 be
       -0.415658 -0.16661106 -0.8112342 -0.14638676
000020 58 51 4f bf 7d cd 5c be 35 de a0 3e ee cb dc bd
       -0.80983496 -0.21562763 0.3141953 -0.10781084
000030 7a f8 32 3e 0e fc 85 bd 50 42 02 3d 91 b8 94 bd
       0.17477599 -0.06542216 0.03180152 -0.07261766
000040 a0 74 8a bd d9 67 6c bd c6 39 2d 3f 57 14 96 bd
       -0.06760526 -0.057716224 0.6766628 -0.07328098
000050 6f 8b 98 3e 34 99 6a bd a3 62 97 3d b3 c6 3f bb
       0.2979388 -0.057275012 0.0739186 -0.002926272
000060 4e dd eb bc f0 fc 91 bc 94 0b 5a 3f 81 17 d5 bd
       -0.02879205 -0.017820805 0.85173917 -0.10404874
000070 1e 34 43 3e b0 94 95 bd bd 82 78 bd 6d 0c f7 bb
       0.1906285 -0.073037505 -0.060671557 -0.007539323
000080 f6 a8 9f bd 9f f0 fc bb 1e d9 1b 3f 7f a5 29 be
       -0.077958986 -0.007719114 0.6087817 -0.16567038
000090 71 ef 51 bd 2e a2 02 be 23 be 6c be e2 72 4b bd
       -0.05125374 -0.12757179 -0.23119406 -0.049670108
0000a0 0e 8f 80 be c6 a7 06 bc 4a ee 88 3e 7c 0e 8e bd
       -0.25109142 -0.008218711 0.267443 -0.069363564
0000b0 79 b6 89 3e 1c e4 3d bf 38 ab 3c be f6 4b cf be
       0.26897028 -0.7417619 -0.1842469 -0.4048764
0000c0 dd e8 5e be 30 b9 0f bf 3b d8 28 be 0e 2c 26 bf
       -0.21768518 -0.5614195 -0.16488735 -0.6491097
0000d0 03 f2 1a bf 85 b9 19 3f 0e 32 04 be 1b 76 1c 3e
       -0.6052553 0.60048705 -0.1290972 0.15279429
0000e0 c2 1e 17 3e 56 1d fd 3d a3 99 4e 3e fa ad 39 3e
       0.14757827 0.12359111 0.20175795 0.18132773
0000f0 93 26 cb be 98 9a 71 3f 12 bc 09 be 6b 13 60 3e
       -0.39677867 0.94376516 -0.1345065 0.21882407
000100 e5 9c 1b 3e 62 75 84 3b e9 56 7a 3e 2c cc b1 3c
       0.1519657 0.0040423134 0.24447216 0.021703802
000110 65 fb 91 be eb 78 88 3f 01 b9 a8 bd 63 67 56 3e
       -0.2851211 1.0661901 -0.08238412 0.20937876
000120 99 0d 2a 3e af f7 43 bd 62 d3 ef 3d 15 4d ea bc
       0.1660675 -0.04784363 0.1171024 -0.028601209
000130 e1 39 27 be 2e 74 45 3f 64 ee c8 bc cb 70 af 3d
       -0.16330673 0.771304 -0.024527736 0.085664354
000140 c3 de 9c 3d 05 8c b8 be 46 cf a7 3d cf e9 07 bf
       0.07659676 -0.36044326 0.08193831 -0.5309114
000150 82 84 29 3e d0 7f 83 3e cb 00 05 3f 1b 74 26 bf
       0.16554454 0.2568345 0.51954335 -0.6502091
000160 21 87 f8 3e a8 b6 46 be 68 41 3b 3f 85 4e 04 be
       0.48540595 -0.19405615 0.73146677 -0.12920578
000170 b1 aa 75 3f 6e b5 f8 bc 2b cc 5c bf a4 2a 43 3d
       0.9596358 -0.03035995 -0.86249036 0.047648087
000180 bb d0 b5 be 39 f7 72 3b c8 77 91 3d 65 3a 8b bd
       -0.3551081 0.0037073626 0.071029246 -0.06798247
000190 76 38 25 3e 4f 3f 9a bd 88 11 33 bf 16 66 c0 3d
       0.1613482 -0.075316064 -0.69948626 0.09394471
0001a0 25 a7 c1 bd 6c 9a a2 bb 6b 3f 82 3e 40 5a fd bb
       -0.094557084 -0.004962256 0.2543901 -0.007731706
0001b0 bc 5c b2 3e 0f 3d 2d bc fe d0 c2 be 38 8f 0b 3e
       0.34836376 -0.01057364 -0.38050073 0.13628852
0001c0 48 cd ab be 7f 13 08 3d ed dc 30 3c 55 02 e5 bb
       -0.33555055 0.033221718 0.01079486 -0.0069888034
0001d0 ad 58 7e 3e 43 46 86 bb 36 d8 29 be 21 f5 2e 3e
       0.24838515 -0.0040977313 -0.16586384 0.17085697
0001e0 5c 44 14 be 8c b7 44 3d 41 0b 16 bc 56 a3 7b bd
       -0.14479202 0.048026606 -0.009157957 -0.061435066
0001f0 e3 50 9f 3e 33 9a a6 bf 5d c3 77 be c4 4d 9a be
       0.311164 -1.3015808 -0.24195619 -0.30137455
000200 b3 ff 64 3e 3d 61 c4 3e 37 cf d3 3d 77 c7 37 3e
       0.22363167 0.38355437 0.103422575 0.17947184
000210 af 66 1b 3d 23 c2 2b 3e 80 ff 05 bd 42 91 52 3e
       0.037939724 0.16773276 -0.032714367 0.20563224
000220 99 17 4e be 22 4b 1d 3e 31 b8 dd bd 94 72 ee 3d
       -0.2012619 0.15360692 -0.10826147 0.11642948
000230 ea e8 70 bd 95 58 bc 3d c7 b5 09 bc fb af cb 3d
       -0.058815874 0.09196583 -0.0084051555 0.09945675
000240 29 c0 04 be 52 af ed 3d ad 85 be bd 97 ad 91 3c
       -0.12963928 0.11605705 -0.093028404 0.01778297
000250 60 87 20 be 65 81 ce 3b 79 a0 7d be 3f 53 13 c0
       -0.15676641 0.006302046 -0.24768247 -2.301956
000260 35 36 14 bd 3e 45 bc 3d f1 23 f6 bd 5e f5 ad 3d
       -0.03618451 0.091928944 -0.12018574 0.08494066
000270 34 46 49 bb 42 85 3c 3e 57 0c 22 3e ec 10 46 3e
       -0.003071201 0.18410209 0.1582502 0.19342393
000280 4c 71 bd 3c 6b e4 66 3d 24 21 2d bd 05 7d f0 3d
       0.023125313 0.05637018 -0.042267933 0.117425956
000290 87 97 c4 3d 49 7a 6f 3e 36 9b 26 3e c6 87 4a 3e
       0.09599214 0.23386492 0.16270146 0.19778356
0002a0 5e 6a 9a be c2 58 29 3e 71 db bd bf 06 bd 90 3e
       -0.30159277 0.16537765 -1.4832593 0.28269213
0002b0 4a d8 d1 be 8b 74 ee 3d cb c8 5f be cd fb d3 3d
       -0.40985328 0.116433226 -0.2185394 0.103507616
0002c0 a2 35 37 be d4 fa 4d 3e ae 3e d1 3c d4 fe ba be
       -0.17891553 0.20115215 0.025542583 -0.36522543
0002d0 10 f8 f5 3b e4 3a 94 3d b0 71 48 bc 09 e0 c6 3e
       0.007506378 0.07237795 -0.012234136 0.388428
0002e0 34 9b 82 3b 3e 10 1a 3f 8a 52 bc 3d be 26 93 be
       0.003985787 0.60181034 0.091954306 -0.28740495
0002f0 fa 9f 3f bd 1e 75 b3 3d e0 c0 11 be 1a aa 00 3f
       -0.046783425 0.08762573 -0.14233732 0.50259554
000300 18 c0 f8 bd de 9e 79 3f e0 6d b9 3d 34 e0 52 be
       -0.12146014 0.9750804 0.0905416 -0.20593339
000310 b1 2a d9 bd b7 a5 02 3d bc 79 44 be e4 0e 22 3f
       -0.10603846 0.03189632 -0.19187063 0.6330397
000320 7b 46 e5 bd 2a 4a a9 3f de ad 09 be 02 0c e2 bd
       -0.11195084 1.3225758 -0.13445231 -0.110374466
000330 d3 db 98 be 4f 9d 26 3e a9 78 6b be 3b 53 22 3f
       -0.29855213 0.16270946 -0.22995247 0.6340825
000340 76 a5 31 3d e9 e6 7d 3f 68 6f 53 3e b6 b3 8b 3e
       0.043370686 0.99180466 0.20647967 0.27285546
000350 73 e5 3b 3e ed 4a 09 3e 69 63 25 3e 1d 39 7d 3d
       0.18349247 0.13407488 0.16151203 0.061822046
000360 bd cd 1c 3e 85 9c 2a bd e9 c5 43 3e 0a 8e c4 bd
       0.15312858 -0.041653175 0.19118465 -0.09597404
000370 aa 42 2f 3e da 9b 52 bc 8e fe 01 3e a4 5d 83 3b
       0.17115274 -0.012854541 0.12694761 0.0040089656
000380 20 76 c5 3d e0 89 f3 bc 00 c0 27 3d 69 87 5e bd
       0.09641671 -0.02972883 0.04095459 -0.054328356
000390 9a f6 68 3e ea 58 d4 bb e2 dd 19 3e da 09 2f bb
       0.22750321 -0.006480326 0.15026048 -0.0026708753
0003a0 b0 be e9 3d 3d 45 eb bc 18 a1 76 3d 64 ea 4a bd
       0.11413324 -0.028719539 0.060212225 -0.04953994
0003b0 87 76 74 3e b6 77 f6 bb 14 d6 3b 3e bd 2c 95 bc
       0.2387334 -0.007521595 0.18343383 -0.01820981
0003c0 11 32 04 3e 51 0a a5 bd 03 71 0d c0 8a 0d de bd
       0.12909724 -0.08058608 -2.2100227 -0.10842426
0003d0 08 56 64 3e c9 f3 8a 39 01 be 48 3e eb 56 f4 bb
       0.22298443 0.00026503045 0.1960373 -0.0074566505
0003e0 a1 ba 03 3e 9e 64 b4 bd 5e ec 11 3e 5e dd 0f bd
       0.12864162 -0.08808254 0.14250323 -0.03512322
0003f0 50 47 79 3e 5a 32 35 be 08 88 b1 bf 4c 0c 2d 3b
       0.2434361 -0.17694989 -1.3869638 0.0026405035

sequential/dense_1/MatMul f4 [10, 20]
000000 33 aa f3 3e 71 63 0d 3e f3 1c 32 bf f9 24 82 be
       0.4759079 0.13807465 -0.69575423 -0.25418833
000010 39 37 a4 3f f0 93 4c 3f 40 d8 82 3f 71 6b 8e be
       1.2829353 0.79913235 1.0222244 -0.27816346
000020 8b 18 a0 3f 52 24 c1 bd 1e bc 85 3e ff 73 66 3f
       1.250749 -0.09430756 0.26120085 0.90020746
000030 11 fd 41 3f 0a 23 26 be b2 ed 23 3f 47 b9 17 be
       0.75776774 -0.16224304 0.6403457 -0.14816771
000040 93 84 1c be 83 79 ab 3d 2f 1d 66 3e b4 04 55 3f
       -0.15284948 0.08372786 0.2247207 0.832103
000050 5f b2 88 3f 25 d9 85 3f 2e a9 17 40 88 81 a9 bc
       1.0679435 1.0456892 2.369701 -0.020691648
000060 7c 3a 00 bf e3 a8 86 3f ea 42 e8 bf 92 dc 17 3f
       -0.5008924 1.052029 -1.814542 0.5932094
000070 d4 2f 2d 3f 4a 11 4b bc ec e8 da 3f 37 21 1d 3f
       0.67651105 -0.012394259 1.7102332 0.61378807
000080 a9 52 36 3f 54 d6 d1 3e be dc 4a be de 17 9c be
       0.7121988 0.40983832 -0.19810769 -0.3048696
000090 d9 42 3f 3f b4 fb a6 3f 07 5f 9d 3f 4d 04 2c bf
       0.74711376 1.3045564 1.2294625 -0.6719406
0000a0 f9 02 1c c0 36 9a 2b bf 91 7b f1 3e 06 69 c4 3d
       -2.4376814 -0.6703218 0.47164586 0.09590344
0000b0 5a 8d 54 bf db 67 ca 3c dd 32 60 3f 2e b6 15 3e
       -0.83028185 0.024707725 0.8757761 0.14620277
0000c0 1a 01 45 bf 14 20 91 3e 62 53 37 3d 4b 1b 95 bd
       -0.76954806 0.28344786 0.044757254 -0.07280596
0000d0 a9 f3 64 be b1 7e a2 bf 48 6a 8b 3f 46 6a 1b 3e
       -0.22358574 -1.2694913 1.089181 0.15177259
0000e0 d5 92 23 3f ca 21 63 3e f5 cd d4 3e 85 d4 2e 3c
       0.6389592 0.22180858 0.41563383 0.010670786
0000f0 99 9a 6d bf b4 18 a7 bf 72 29 9c be 3d cb 59 3f
       -0.9281402 -1.3054414 -0.3050037 0.8507574
000100 19 d8 54 bd 4b 66 1b 3f 94 a1 7d 3e fe ed 2c 3e
       -0.0519639 0.6070296 0.24768668 0.16887662
000110 e1 80 97 3e 5b 6a c7 3e 1d e7 4a 3f 5f f8 d4 3e
       0.29590514 0.3894833 0.792589 0.41595742
000120 1f 26 0a 3e a8 8e 76 be 34 d0 47 bf fd 63 d9 3f
       0.13491105 -0.24077857 -0.7805207 1.6983639
000130 29 12 50 3f be 39 c5 3f ce 02 f7 3e cc 7b de be
       0.8127771 1.5408247 0.48244327 -0.43453825
000140 f4 39 bb 3f 54 f5 b4 be 4a 50 2f c0 f4 26 59 3e
       1.4627061 -0.3534342 -2.7392755 0.21206266
000150 10 af 90 bd a8 78 bb 3e 1d 3f da bc 3f 6a a8 bd
       -0.070646405 0.3661549 -0.026641423 -0.0822339
000160 49 ad 42 3f 28 18 e4 3e 0c d9 16 c0 9d a8 8c 3f
       0.7604566 0.4454968 -2.3569975 1.0988957
000170 8b 53 f6 3c 07 63 ed 3f 82 45 bf 3f ef 93 a0 be
       0.030069133 1.8545846 1.4943087 -0.31362864
000180 1f b3 85 3e 98 f0 2e be e8 e7 dd 3e db f9 f5 be
       0.2611322 -0.17083967 0.43340993 -0.48042187
000190 ca 73 61 bd db f0 a6 bd 6b 44 1e 3e a5 21 12 be
       -0.055042066 -0.08151408 0.15455787 -0.14270647
0001a0 04 2c 0e 3e b8 4d c0 3f 4f 8b 50 3e 28 43 a6 3f
       0.13883978 1.5023718 0.20365642 1.2989244
0001b0 36 b3 05 3f 9d 88 c9 3e 4c 26 f9 3d 90 30 bb be
       0.5222658 0.3936204 0.12165508 -0.36560488
0001c0 f1 80 b1 3c d7 05 d3 bd 41 28 85 3f 50 7c 37 3e
       0.02166793 -0.10303848 1.040291 0.17918515
0001d0 1d a7 17 3f 10 9d 93 be 68 b8 11 3f 92 2b 1b bf
       0.5923937 -0.28830767 0.56922007 -0.6061336
0001e0 ff f5 b1 be 94 92 19 3f c5 98 20 be ff 52 e1 ba
       -0.34757993 0.59989285 -0.15683277 -0.0017190872
0001f0 f3 db cb be b6 15 49 be 6e 87 a2 be 33 d2 b7 3e
       -0.39816245 -0.19637188 -0.3174395 0.35902557
000200 96 5f 44 be 3a 68 23 bd 05 c2 68 be 45 9d c7 3d
       -0.19177088 -0.03989432 -0.22730263 0.09746794
000210 b8 0b 00 bd de 36 d2 bf 39 ce 14 3e 20 a5 0e bf
       -0.031261176 -1.6422994 0.14531793 -0.5572071
000220 34 f3 98 be 03 e3 12 be a4 b2 91 be 63 e8 8a 3f
       -0.2987305 -0.1434441 -0.28456604 1.0852169
000230 18 49 f4 3d 5b e3 e6 3e 60 be b0 3e 51 cb d2 3f
       0.11928004 0.45095333 0.34520245 1.6468297
000240 af 0f ac 3e 0b 0c 85 3d 5f f1 f9 3e 6f 37 bd 3e
       0.33605716 0.06496438 0.48816964 0.36956355
000250 f2 61 6d 3e 24 9b d5 3e 43 95 f7 be 4d 7d c7 3e
       0.23181894 0.41719925 -0.48356065 0.38962784
000260 13 d7 b9 be 89 ae 8e bf e5 8e 03 3e c1 21 d5 3f
       -0.362969 -1.1147014 0.12847479 1.6650926
000270 ea 62 54 bf 14 c5 79 3e cf c6 b7 3d b8 4d c9 be
       -0.8296343 0.24391586 0.089734666 -0.39317107
000280 92 eb 82 bd 44 bb 93 3f 9f bf 54 3d d5 61 1b 3f
       -0.06392588 1.1541524 0.051940557 0.60696155
000290 b5 54 0b 3f 1a 9d f3 3f 65 1b b7 3d 3d 6a 59 3e
       0.5442613 1.9032319 0.08940772 0.21231933
0002a0 40 20 dd 3d 7f f9 e8 3e a0 63 0a bf 12 6a 11 3f
       0.10797167 0.4550285 -0.54058266 0.56802475
0002b0 fa a2 b0 be 7f ae 60 be 4c 69 95 be 75 d0 51 3f
       -0.3449934 -0.21941565 -0.29181898 0.81958705
0002c0 af bb a1 3f c5 24 07 40 3a 5f 0a 40 ac dd 61 3f
       1.2635401 2.1116192 2.1620622 0.8822887
0002d0 21 10 c3 bf f3 7c a7 3e 84 b9 bc be f7 04 28 3e
       -1.5239297 0.32712516 -0.36860287 0.16408144
0002e0 4a bb 07 3f bb d0 18 3d 04 92 73 3f 41 98 f9 3e
       0.53020155 0.037308436 0.9514468 0.48748973
0002f0 60 70 e8 bf 8e 52 20 be 94 90 4b 3d 0f e1 af bd
       -1.8159294 -0.15656492 0.049698427 -0.085878484
000300 b3 05 2d 3f c1 33 c1 bf 53 2c a1 be a3 8a 5e 3e
       0.6758682 -1.5093919 -0.3147913 0.21732573
000310 7d c2 55 bf fc 4f e4 bc 57 61 63 c0 d4 71 c5 3e
       -0.8349989 -0.02787017 -3.5528162 0.38563406

sequential/dense_2/MatMul f4 [10, 10]
000000 92 5d e8 3e 24 4c f0 3e 5d 9c 85 3f 6e 27 36 bf
       0.45383888 0.4693309 1.0438343 -0.71153915
000010 3b db e4 3e 6b 73 29 3f 60 15 ab bf 42 e2 be bd
       0.4469851 0.6619174 -1.3365898 -0.09320499
000020 c2 92 5e 3e 1f 38 32 bf 9c 31 81 bf 32 55 8d be
       0.21735671 -0.69616884 -1.0093265 -0.2760406
000030 5b 3f ea bf cd 34 c2 bf 8d 8e 7f 3e 6c fb 5c 3f
       -1.8300585 -1.5172364 0.24956723 0.8632114
000040 f4 4e d1 3f 87 85 00 c0 99 21 13 c0 0f 1b bd 3d
       1.635222 -2.0081499 -2.2989256 0.09233677
000050 aa 1d 1d bf 88 00 f6 bf 5f 85 94 be 74 64 08 3e
       -0.6137339 -1.9218912 -0.29008004 0.1331957
000060 05 9e 82 bf b6 7b 30 bd 41 11 48 3e d3 21 40 3f
       -1.0204474 -0.04308673 0.19537832 0.7505161
000070 5e 94 23 bf 14 20 be 3f a9 27 0e bf 76 86 f8 be
       -0.63898265 1.485354 -0.55529267 -0.48540086
000080 61 25 a4 be 38 93 3b 3f df 75 ae b9 be 8d 89 bd
       -0.32059768 0.73271513 -0.00033275687 -0.06716488
000090 c4 ed f6 be 81 25 39 be 59 8f 71 3f 69 38 8b 3e
       -0.48228276 -0.18080713 0.94359356 0.27191475
0000a0 c6 5d 2e 3f a7 94 55 be d3 2f 3c 3f d4 e0 45 3f
       0.68111837 -0.20857488 0.73510474 0.77296185
0000b0 1c 84 8b bf 7f 09 c9 3d e3 0a da 3e e0 1a 6a 3e
       -1.0899692 0.09816264 0.4258643 0.22861814
0000c0 ff e3 f5 3e c1 70 c5 bf e4 4a 07 bf 1b 71 ed 3e
       0.4802551 -1.5425035 -0.5284865 0.46375355
0000d0 12 8b 85 bf 0b d7 42 3f 0d 5d 95 3d b0 b1 b2 3e
       -1.0433066 0.7610938 0.07293139 0.3490119
0000e0 98 6c 92 bf d5 40 35 3e b8 f3 40 3e c9 6b 9d bf
       -1.143939 0.17700513 0.18842971 -1.2298518
0000f0 59 84 af be 17 02 8b 3f 84 d7 54 bf 0f 28 33 be
       -0.3428066 1.0860013 -0.8314135 -0.1749575
000100 1e 7a 27 bf d0 18 33 c0 dd ba ec 3e f7 02 68 3d
       -0.6542071 -2.7983894 0.46236315 0.056643452
000110 e5 c7 4c 3e 36 c2 20 3f de 00 b8 3e 09 f5 44 bf
       0.19998129 0.6279634 0.35938162 -0.76936394
000120 bc 48 d7 3f 98 cf 27 bf ec be 16 c0 cc ee c7 bf
       1.6819072 -0.6555114 -2.355403 -1.561975
000130 e9 33 6b 3f 81 1d 0d be 70 dc ca 3f 0e 33 02 3f
       0.91876084 -0.13780786 1.5848522 0.50859153
000140 1d b9 2f bf e5 be 9a be 05 60 3e 3f e4 9d 25 be
       -0.68641835 -0.30223766 0.74365264 -0.16173512
000150 4c a2 a4 3f 6c df af be 99 da 8b be 65 94 47 3f
       1.2862029 -0.34350145 -0.27315214 0.7796081
000160 8b 73 48 bf 0e 2a 54 bf a2 5e b6 3f 02 d4 13 bf
       -0.78301305 -0.8287667 1.424763 -0.57745373
000170 25 82 3e 3f 2d 3f 09 bd ee a4 03 3f 06 e8 9a be
       0.74417335 -0.033507515 0.5142354 -0.30255145
000180 0e 9f 65 bf bc ea 4c bf 4f c3 9a bf 7f 9f c5 bd
       -0.89695823 -0.80045676 -1.2090853 -0.09649562
